MNIST_Android/app/src/main/assets/fc_softmax.tflite (tflite, 32124 bytes, 2 tensors)

MatMul_bias f4 [10]
0	0xbd8f6da6	-0.07003336
1	0x3e901ed6	0.28148526
2	0xbd859215	-0.065220036
3	0xbda75056	-0.0816962
4	0x3de51a90	0.11186707
5	0x3de4daac	0.11174521
6	0x3c2c1a86	0.010504371
7	0x3e31f63f	0.17379092
8	0xbecc5712	-0.3991018
9	0xbd9633bf	-0.073340885

Variable/transpose f4 [10, 784]
0	0x00000000	0.0
1	0x00000000	0.0
2	0x00000000	0.0
3	0x00000000	0.0
4	0x00000000	0.0
5	0x00000000	0.0
6	0x00000000	0.0
7	0x00000000	0.0
8	0x00000000	0.0
9	0x00000000	0.0
10	0x00000000	0.0
11	0x00000000	0.0
12	0xb52e640b	-6.4965633e-07
13	0xb6380565	-2.7421277e-06
14	0xb5c51824	-1.468467e-06
15	0xb383656d	-6.118612e-08
16	0x00000000	0.0
17	0x00000000	0.0
18	0x00000000	0.0
19	0x00000000	0.0
20	0x00000000	0.0
21	0x00000000	0.0
22	0x00000000	0.0
23	0x00000000	0.0
24	0x00000000	0.0
25	0x00000000	0.0
26	0x00000000	0.0
27	0x00000000	0.0
28	0x00000000	0.0
29	0x00000000	0.0
30	0x00000000	0.0
31	0x00000000	0.0
32	0xb3b4d100	-8.41992e-08
33	0xb52ed5ff	-6.5131456e-07
34	0xb888d310	-6.524299e-05
35	0xb8f06129	-0.00011462189
36	0xb8c83b62	-9.547804e-05
37	0xb962651b	-0.00021590704
38	0xba0a8fb0	-0.00052856933
39	0xb916814e	-0.00014353284
40	0x39c9abbc	0.0003846566
41	0x375c1f23	1.3120271e-05
42	0xba38eeb7	-0.0007054614
43	0xba813b5e	-0.0009859612
44	0xba95f82b	-0.0011441758
45	0xba1c8228	-0.00059703225
46	0xb955c0b4	-0.0002038505
47	0xb94f0d2e	-0.00019745968
48	0xb949c6af	-0.00019242869
49	0xb98a5307	-0.0002638327
50	0xb8c0ab6b	-9.1872025e-05
51	0xb488c5d3	-2.547591e-07
52	0x00000000	0.0
53	0x00000000	0.0
54	0x00000000	0.0
55	0x00000000	0.0
56	0x00000000	0.0
57	0x00000000	0.0
58	0xb552e6c2	-7.8566893e-07
59	0x38467e52	4.7324524e-05
60	0x37320b19	1.0612211e-05
61	0xb816daf6	-3.596671e-05
62	0xba0102bb	-0.00049213663
63	0xba30ba16	-0.0006741596
64	0xbaac5ff5	-0.0013151156
65	0xbb618499	-0.003441131
66	0xbbad66ee	-0.005291811
67	0xbbc94c18	-0.0061431043
68	0xbc05144e	-0.008122517
69	0xbc21d935	-0.009878446
70	0xbc55d200	-0.013050556
71	0xbc84f6d5	-0.01623098
72	0xbc8d68d5	-0.017261902
73	0xbc74c05b	-0.014938439
74	0xbc53e218	-0.012932323
75	0xbc3fb1d7	-0.011700115
76	0xbc0d4cb1	-0.008624242
77	0xbba8ba07	-0.0051491293
78	0xbb4176b8	-0.0029520225
79	0xba960301	-0.0011444987
80	0xb9929683	-0.0002795943
81	0xb70c9f7f	-8.381786e-06
82	0x00000000	0.0
83	0x00000000	0.0
84	0x00000000	0.0
85	0x00000000	0.0
86	0xb6654403	-3.4163247e-06
87	0x38a6eff4	7.9601916e-05
88	0xb86a9a66	-5.5933742e-05
89	0xb9ed0b81	-0.00045212734
90	0xbb01c800	-0.0019803047
91	0xbb7b59d4	-0.0038353102
92	0xbbd19360	-0.0063957423
93	0xbc52f143	-0.012874904
94	0xbc8ba408	-0.01704599
95	0xbca421b2	-0.020035598
96	0xbcd8a252	-0.026444588
97	0xbcf00715	-0.029300252
98	0xbd0a0dac	-0.033704445
99	0xbd1e59be	-0.038659804
100	0xbd1ba09c	-0.037994966
101	0xbd35ded7	-0.04440197
102	0xbd43667f	-0.04770517
103	0xbd31b981	-0.0433898
104	0xbd0b745b	-0.034046512
105	0xbcc2105f	-0.023689447
106	0xbc780d64	-0.015139911
107	0xbbd066f5	-0.0063599297
108	0xbb178185	-0.002311797
109	0xb9f8a16c	-0.00047422515
110	0xb86ab529	-5.5958666e-05
111	0x00000000	0.0
112	0x00000000	0.0
113	0xb29f94aa	-1.857764e-08
114	0xb781a6e2	-1.545571e-05
115	0x392010a8	0.00015264994
116	0xba0c5281	-0.000535287
117	0xbb6dd246	-0.0036288663
118	0xbc124eff	-0.008929967
119	0xbc650f59	-0.01398071
120	0xbcad69e5	-0.021168659
121	0xbcfb4ab4	-0.03067527
122	0xbd23f12f	-0.040024932
123	0xbd2850d6	-0.041092716
124	0xbd05e25b	-0.032686573
125	0xbc87bc12	-0.016569171
126	0xbb053f27	-0.0020331831
127	0x3c386304	0.011254076
128	0x3b35a0b2	0.002771419
129	0xbc4fbe14	-0.0126795955
130	0xbc9bf9df	-0.019040046
131	0xbcc1a41c	-0.023637824
132	0xbcd1e511	-0.025621923
133	0xbcb733cb	-0.022363564
134	0xbc8acd34	-0.016943552
135	0xbc49f723	-0.012326988
136	0xbbe90dbf	-0.0071122344
137	0xbb12f291	-0.0022422413
138	0xb9e56d3c	-0.0004375967
139	0xb640070f	-2.8614338e-06
140	0x00000000	0.0
141	0x00000000	0.0
142	0xb88f2b08	-6.8267866e-05
143	0x37f4af38	2.916866e-05
144	0xbb19e7b2	-0.0023484048
145	0xbc1e731f	-0.009671002
146	0xbc91f877	-0.017818673
147	0xbcef29fc	-0.029194824
148	0xbd2dedd7	-0.04246315
149	0xbd4f276b	-0.0505747
150	0xbd374369	-0.04474202
151	0xbcbf2fd5	-0.023338238
152	0x3bda20f8	0.006656762
153	0x3d387690	0.045034945
154	0x3d9be7bb	0.076125585
155	0x3dccbcac	0.09996924
156	0x3de31038	0.11087078
157	0x3dc4f209	0.09616477
158	0x3d83a84b	0.06428584
159	0x3d0d1e7b	0.034452897
160	0x3b3a8c4a	0.0028464966
161	0xbc07d771	-0.008291111
162	0xbc8ea7c8	-0.017413989
163	0xbcb4a8f1	-0.022053214
164	0xbc91440a	-0.017732639
165	0xbbee153f	-0.0072657163
166	0xbb045857	-0.0020194256
167	0xb939bc92	-0.00017713223
168	0x00000000	0.0
169	0xb4eb1bd3	-4.3792406e-07
170	0xb94d330e	-0.00019569343
171	0xbab5306a	-0.0013823633
172	0xbbc78be3	-0.006089674
173	0xbc662432	-0.014046716
174	0xbce16824	-0.027515478
175	0xbd21bba2	-0.03948558
176	0xbd41fbe0	-0.047359347
177	0xbd323575	-0.04350801
178	0xbcc5a1fc	-0.024125092
179	0x3b34946b	0.0027554284
180	0x3d08272a	0.033240475
181	0x3d9841b2	0.074344054
182	0x3dcf283b	0.10115095
183	0x3e033a91	0.1281531
184	0x3e16f34c	0.14741248
185	0x3e1edf0e	0.15514776
186	0x3e082deb	0.13298766
187	0x3db5462d	0.088512756
188	0x3d3a7b6e	0.045527868
189	0x3ca2539f	0.019815264
190	0x3b628dd1	0.0034569392
191	0xbcb1ef32	-0.021720503
192	0xbcf57027	-0.029960705
193	0xbc803ed6	-0.015654963
194	0xbb9c6e17	-0.004773866
195	0xba33717f	-0.00068452203
196	0x00000000	0.0
197	0xb85fd052	-5.3361357e-05
198	0xba25c084	-0.00063229376
199	0xbb2c17e3	-0.0026259355
200	0xbc382494	-0.01123919
201	0xbcb2a9d0	-0.021809489
202	0xbd075720	-0.033042073
203	0xbd1eb11a	-0.038743116
204	0xbd1ab6d1	-0.037772004
205	0xbc9ae06d	-0.018905843
206	0xbb79e9e3	-0.0038133792
207	0x3cb2ac68	0.021810725
208	0x3d314b5d	0.043284763
209	0x3d80a542	0.062815204
210	0x3da605f5	0.08106605
211	0x3dd28597	0.102793865
212	0x3e0ce901	0.13760759
213	0x3e313b43	0.17307763
214	0x3e2dbf52	0.16967514
215	0x3e001160	0.12506628
216	0x3d8f1e07	0.06988149
217	0x3d04578c	0.032310054
218	0x3c9ed2e4	0.01938767
219	0xbc1465be	-0.00905746
220	0xbd0d33cc	-0.034473225
221	0xbcaf2e66	-0.02138443
222	0xbbb651b0	-0.005563937
223	0xb8cf2ed6	-9.879253e-05
224	0x37e0a5fa	2.678017e-05
225	0xb9539f84	-0.00020181952
226	0xbb0b3579	-0.002124159
227	0xbbc81ab7	-0.0061067003
228	0xbc993605	-0.018702516
229	0xbcfce790	-0.030872136
230	0xbd10391d	-0.035210717
231	0xbce403ee	-0.027833905
232	0xbcab2575	-0.020891884
233	0xbc1191f9	-0.0088849
234	0x3b862296	0.0040934784
235	0x3ca3acb0	0.019979805
236	0x3d2723b5	0.040805537
237	0x3d4f05b9	0.050542567
238	0x3d7f82f7	0.062380757
239	0x3da7442e	0.08167301
240	0x3defdf8d	0.11712561
241	0x3e1100d4	0.14160472
242	0x3e203a5c	0.15647262
243	0x3e123451	0.1427777
244	0x3ddc2590	0.10749352
245	0x3d6d976e	0.058005743
246	0x3d330085	0.043701667
247	0x3cc140ec	0.023590527
248	0xbcbf8f17	-0.02338366
249	0xbcb5b26f	-0.02217981
250	0xbb968407	-0.0045933756
251	0xb9ac7bb9	-0.00032898577
252	0xb7b59010	-2.1643966e-05
253	0xb9a84772	-0.00032096688
254	0xbb5e39af	-0.0033908894
255	0xbc0f4382	-0.008744122
